No CUDA runtime is found, using CUDA_HOME='/usr/local/cuda'

[0;32m[VAIQ_NOTE]: Loading NNDCT kernels...[0m
Net(
  (cnn_layers): Sequential(
    (0): Conv2d(2, 24, kernel_size=(2, 2), stride=(1, 1))
    (1): BatchNorm2d(24, eps=1e-05, momentum=0.1, affine=True, track_running_stats=True)
    (2): CELU(alpha=1.0)
    (3): Conv2d(24, 38, kernel_size=(2, 2), stride=(1, 1))
    (4): BatchNorm2d(38, eps=1e-05, momentum=0.1, affine=True, track_running_stats=True)
    (5): CELU(alpha=1.0)
    (6): Conv2d(38, 66, kernel_size=(2, 2), stride=(1, 1))
    (7): BatchNorm2d(66, eps=1e-05, momentum=0.1, affine=True, track_running_stats=True)
    (8): CELU(alpha=1.0)
  )
  (linear_layers): Sequential(
    (0): Linear(in_features=264, out_features=60, bias=True)
    (1): BatchNorm1d(60, eps=1e-05, momentum=0.1, affine=True, track_running_stats=True)
    (2): CELU(alpha=1.0)
    (3): Linear(in_features=60, out_features=8, bias=True)
    (4): BatchNorm1d(8, eps=1e-05, momentum=0.1, affine=True, track_running_stats=True)
    (5): CELU(alpha=1.0)
    (6): Linear(in_features=8, out_features=8, bias=False)
  )
)
QUANT_MODE:  calib
RAND_IN:  tensor([[[[… ...,


        [[[ … )
RAND_IN SHAPE:  torch.Size([80, 2, 5, 5])
QUANT_MODEL:  quant_model

[0;33m[VAIQ_WARN]: CUDA is not available, change device to CPU[0m

[0;32m[VAIQ_NOTE]: Quantization calibration process start up...[0m

[0;32m[VAIQ_NOTE]: =>Quant Module is in 'cpu'.[0m

[0;32m[VAIQ_NOTE]: =>Parsing Net...[0m
…
